Basic/checkpoint.pth (torch_old, 88704 bytes, 8 tensors)

conv1.weight f4 [10, 1, 5, 5]
-0.0012288161 0.10755558 -0.16447641 -0.14705895 -0.07676663 0.05418214 -0.0032037708 0.15884115
-0.01763237 0.053157628 -0.05944396 -0.038283534 -0.19076528 -0.13231917 -0.08224006 0.009141415
0.08064588 0.120850086 -0.13509716 -0.08685608 0.07444894 0.16771807 -0.039918207 0.1505118
-0.031909805 0.021897074 0.18184255 -0.18521729 -0.1258431 -0.050689038 -0.07744682 0.17333117
-0.1293357 -0.091999315 -0.13968962 -0.18704315 -0.11653609 0.17197272 0.08918693 0.09700806
0.01053431 -0.10267522 0.033587072 -0.18690704 -0.1444759 -0.10340939 0.1256696 0.11687242
-0.088681474 -0.0069509246 0.12695199 0.19776496 0.07871036 0.026557283 0.13385618 -0.11931968
0.03556517 -0.15594839 -0.13917823 -0.10310947 0.08858535 0.07880843 -0.1191953 0.060323853
0.11110642 -0.027026806 0.006332826 0.046014052 0.12484586 0.19391075 -0.15562943 -0.0741647
0.07878302 0.16665122 0.17561604 0.17549592 0.038488943 -0.17505093 0.01793544 -0.1250765
-0.18755251 0.17577575 0.15046708 -0.20018186 0.037474517 -0.03503655 -0.035121612 -0.09329429
0.07646784 -0.11810956 0.071821816 0.09883566 0.14166039 0.074729465 -0.19752817 -0.13176677
0.09717493 0.04037234 -0.1557245 -0.1145669 0.18799473 0.13550825 -0.08593591 -0.04914474
-0.18957831 -0.0039307717 -0.14983675 -0.1530626 -0.009641415 0.031343933 -0.082199074 0.11935327
-0.12044698 0.1834355 0.13915685 -0.16868201 -0.049040876 0.01072115 0.031145554 0.049429417
0.0793648 0.013364638 -0.09584708 0.09610859 -0.19097969 -0.11819986 -0.049791437 -0.0975586
-0.07022592 -0.16391125 -0.042376217 0.04287844 -0.13049534 -0.010417136 0.143227 -0.020305738
0.005802976 -0.01727517 0.040517945 0.12743203 0.19003195 0.12746784 0.1899904 -0.014259204
-0.1791314 -0.0940624 0.1368446 -0.0009300432 -0.098966874 -0.15274422 -0.18724363 -0.16886987
-0.040708717 0.10941279 0.107778765 -0.19295242 0.124681175 -0.15658574 -0.042361725 -0.08126775
-0.03851951 -0.03930529 -0.17951784 -0.17273313 -0.031432655 0.0026059616 -0.09086432 0.07523331
-0.1802298 -0.013747533 0.17592521 -0.081501774 0.18058263 0.07222107 -0.1807473 0.12481652
-0.024679275 -0.09041591 0.15906376 -0.16219622 0.019927442 -0.043286625 0.14166398 0.054851703
0.0952043 0.0694244 -0.04918898 -0.042967666 -0.16573632 0.10729775 0.15790601 0.13589825
-0.14199407 0.00782537 -0.14220448 -0.110521324 -0.117365554 0.06695337 -0.120577425 -0.005600075
0.009949975 0.13040535 -0.15019631 -0.13685507 -0.11620453 0.14116298 -0.0703681 0.17040476
0.073397435 0.02567057 -0.00058254006 -0.038033295 0.026885336 -0.044566076 -0.0011368839 0.026184298
-0.15513043 -0.10339992 0.16237989 -0.16223416 -0.014225193 0.19844216 0.0729151 0.006041814
-0.17344578 0.09841359 -0.1433093 -0.05731178 -0.06738375 -0.029378705 0.0012156629 0.16406097
0.024156298 0.17852336 0.12208763 -0.1269056 0.08968469 -0.14149444 -0.08493945 0.058720343
0.06630795 0.1507433 -0.06400149 0.0005437714 0.10301286 -0.1929055 0.14561947 -0.16474189
0.003223641 -0.03394473
00000000: 3a10 a1ba 1a46 dc3d 816c 28be 9f96 16be
00000010: d337 9dbd 17ee 5d3d 5bf6 51bb 41a7 223e
00000020: c371 90bc d0bb 593d 837b 73bd 32cf 1cbd
00000030: f957 43be ad7e 07be 7a6d a8bd e0c5 153c
00000040: ab29 a53d 4080 f73d e956 0abe 9ae1 b1bd
00000050: b078 983d 49be 2b3e 4681 23bd c41f 1a3e
00000060: dbb3 02bd 7e61 b33c ef34 3a3e 9aa9 3dbe
00000070: 03dd 00be 4f9f 4fbd 709c 9ebd ba7d 313e
00000080: 9470 04be 236a bcbd cc0a 0fbe 3d88 3fbe
00000090: 79aa eebd 9e19 303e a3a7 b63d 29ac c63d
000000a0: 1998 2c3c 6347 d2bd 9992 093d 8f64 3fbe
000000b0: 7ef1 13be 4dc8 d3bd 88af 003e cf5a ef3d
000000c0: a29e b5bd 95c4 e3bb b4ff 013e e682 4a3e
000000d0: e632 a13d a98e d93c 9811 093e e05d f4bd
000000e0: c9ac 113d efb0 1fbe bd84 0ebe 0f2b d3bd
000000f0: 3c6c b53d 5066 a13d aa1c f4bd 2516 773d
00000100: c38b e33d 5267 ddbc 9883 cf3b 3b79 3c3d
00000110: 30af ff3d 8a90 463e 525d 1fbe aae3 97bd
00000120: fe58 a13d 9ea6 2a3e b1d4 333e 34b5 333e
00000130: 95a6 1d3d 8d40 33be 58ed 923c 0e14 00be
00000140: c40d 40be 8ffe 333e 0b14 1a3e 79fc 4cbe
00000150: e17e 193d 7c82 0fbd aedb 0fbd 1411 bfbd
00000160: 2c9b 9c3d 6de3 f1bd 5117 933d 5a6a ca3d
00000170: 6c0f 113e c30b 993d d344 4abe deed 06be
00000180: a603 c73d 775d 253d 3e76 1fbe 0da2 eabd
00000190: b181 403e adc2 0a3e 2bff afbd ff4b 49bd
000001a0: d120 42be b4cd 80bb ce6e 19be 71bc 1cbe
000001b0: 07f7 1dbc 7f62 003d fd57 a8bd 7d6f f43d
000001c0: e8ac f6bd 84d6 3b3e 227f 0e3e faba 2cbe
000001d0: 16df 48bd c3a7 2f3c f624 ff3c 8076 4a3d
000001e0: 038a a23d 5bf7 5a3c 794b c4bd 95d4 c43d
000001f0: 2e90 43be c512 f2bd 1bf2 4bbd cecc c7bd
00000200: 9bd2 8fbd 5ad8 27be af92 2dbd 4ea1 2f3d
00000210: 92a0 05be a3ac 2abc 19aa 123e 3858 a6bc
00000220: e426 be3b a884 8dbc 25f6 253d 8b7d 023e
00000230: bc97 423e ee86 023e d88c 423e 709f 69bc
00000240: 396e 37be caa3 c0bd fe20 0c3e 25ce 73ba
00000250: 25af cabd fb68 1cbe cbbc 3fbe 39ec 2cbe
00000260: 2fbe 26bd d013 e03d 1dbb dc3d 5295 45be
00000270: d858 ff3d 0358 20be 7d83 2dbd b56f a6bd
00000280: a2c6 1dbd 95fe 20bd 86d3 37be f4e0 30be
00000290: 87bf 00bd c8c8 2a3b 1317 babd ec13 9a3d
000002a0: 298e 38be 553d 61bc bd25 343e 67ea a6bd
000002b0: a7ea 383e a4e8 933d d215 39be ce9f ff3d
000002c0: 312c cabc fa2b b9bd 9ce1 223e c416 26be
000002d0: e03e a33c 514d 31bd 5d10 113e 2eac 603d
000002e0: 79fa c23d 612e 8e3d 627a 49bd ddfe 2fbd
000002f0: c8b6 29be ecbe db3d 1db2 213e e928 0b3e
00000300: e566 11be fb35 003c 0d9e 11be 0159 e2bd
00000310: 5a5d f0bd d91e 893d 4cf1 f6bd d580 b7bb
00000320: 3805 233c fb88 053e 10cd 19be bc23 0cbe
00000330: a4fc edbd 078d 103e 271d 90bd 967e 2e3e
00000340: 6551 963d 164b d23c 9ab5 18ba cdc8 1bbd
00000350: a33e dc3c eb8a 36bd 7e03 95ba 7480 d63c
00000360: 83da 1ebe 56c3 d3bd ea46 263e b620 26be
00000370: c910 69bc 6c34 4b3e 8354 953d 69fa c53b
00000380: c59b 31be 108d c93d acbf 12be c2bf 6abd
00000390: 7e00 8abd 9cab f0bc e156 9f3a 99ff 273e
000003a0: 6ee3 c53c d4ce 363e 1409 fa3d 8bf3 01be
000003b0: 9bac b73d ebe3 10be bcf4 adbd be84 703d
000003c0: 76cc 873d 745c 1a3e 3713 83bd e28b 0e3a
000003d0: 68f8 d23d 0589 45be 451d 153e 19b2 28be
000003e0: b943 533b a109 0bbd

conv1.bias f4 [10]
-0.10523487 0.026428062 0.16561009 -0.059408166 -0.11915928 -0.074296474 -0.19816655 0.09073484
-0.09549966 -0.1330355
00000000: 6185 d7bd aa7f d83c b195 293e fa55 73bd
00000010: c809 f4bd c028 98bd 2cec 4abe 30d3 b93d
00000020: 5395 c3bd 753a 08be

conv2.weight f4 [20, 10, 5, 5]
-0.036806274 0.03583685 0.03364459 0.04928711 0.02344524 -0.021615332 -0.018185237 0.019000268
0.05300889 0.017928602 -0.030576866 -0.03065461 -0.059786722 0.014710905 -0.034458026 -0.0568555
0.05436149 -0.041609425 -0.006627346 0.019231094 0.0019856843 -0.04340491 -0.052015483 0.0503417
0.0113500655 0.052244727 -0.021578103 0.01831415 -0.014701159 -0.0030642224 -0.03878303 0.020884143
0.0196823 -0.0014323051 -0.014383318 -0.03919 0.043284543 -0.047345016 0.025727788 -0.02132965
-0.030564187 0.011060253 -0.033050556 0.014184411 0.012372416 -0.046952672 0.01031432 0.026519934
0.024561362 -0.008134105 -0.051966965 -0.009328426 0.022029225 -0.023673616 0.02340952 0.042067036
-0.03240997 0.0015719371 0.026953429 0.005286645 0.003940613 0.008741264 -0.047574982 0.0070354454
0.044186853 0.054785687 0.037699025 0.011103779 0.032177612 -0.03079972 -0.054810386 -0.055103127
0.06469849 0.042298757 -0.04327619 0.02397421 0.04708463 0.063336216 0.055803493 0.04909601
-0.0154126175 -0.023168817 0.051817957 0.03593305 -0.03782102 0.055849485 0.02915137 0.033989724
-0.039281756 0.018738167 -0.023139512 0.047804516 -0.012066131 0.024917675 0.012115719 0.0261965
-0.022877403 0.029994227 -0.044073466 0.015239929 -0.042591996 -0.062538765 -0.051265754 0.049619637
0.034030143 0.059381925 0.050188806 -0.056989502 -0.043316964 -0.010082859 -0.041025624 0.04357603
-0.04794845 -0.030661885 -0.060899604 -0.03594674 0.052213654 0.051978644 0.045479 0.048691723
0.056188688 -0.016067715 0.027941465 0.056488905 0.020906257 0.06337607 0.032683246 0.039140303
-0.022090668 0.030359 0.0075022685 -0.015379759 -0.036110047 -0.035433963 -0.04812262 0.043033656
0.04460157 -0.007597961 -0.036042668 0.05033787 0.041035887 0.004236774 -0.03005272 0.059034683
0.027357208 -0.04735337 0.060482 0.047894444 -0.022650113 0.036457397 -0.036028564 -0.010274764
0.053232025 0.0023928923 -0.044787124 -0.021061148 -0.01721424 -0.01237781 0.0060788565 0.058707494
0.0035613035 -0.03915422 0.0030601104 0.030244827 0.031543624 -0.057378512 -0.011266843 -0.047288038
-0.027309462 0.022808038 -0.04450666 0.02388526 0.05361059 0.003771308 -0.042305328 -0.022953277
0.013129751 -0.04853106 0.03160706 -0.057297178 -0.06117367 -0.062006813 -0.01303364 0.04264009
-0.059907995 0.05249892 -0.02553193 0.018236976 0.0026491578 -0.05707706 0.052549213 0.03388758
0.062334236 0.031846922 -0.04124207 0.053065233 0.003493681 0.02977286 -0.05062047 -0.017290507
-0.06252773 -0.025038337 0.013701268 -0.049174543 0.02038481 0.033362765 0.008124546 -0.042302273
-0.048510313 -0.01908631 0.027066173 0.061437484 0.036175504 -0.0066019427 0.022940896 -0.062637046
-0.054904845 0.028984176 -0.035411656 0.031245844 -0.04499079 -0.0319446 -0.052748397 0.033302154
-0.0057604904 0.048873935 0.039402455 0.03519015 0.0021006977 -0.019578995 -0.01364294 0.008536603
0.031457365 -0.044248734 0.053033654 -0.0068614227 -0.052837376 -0.034015615 0.056207526 0.05784324
-0.058849942 0.044752885 0.032217134 0.03798368 0.05388175 -0.034372978 0.020084366 0.026527265
-0.018186023 0.02164733 -0.018050091 0.039370943 -0.017056672 -0.023249697 0.015878204 0.02289759
00000000: 2dc2 16bd a9c9 123d e9ce 093d 48e1 493d
00000010: 3b10 c03c a312 b1bc 35f9 94bc 73a6 9b3c
00000020: da1f 593d 01df 923c 567c fabc 601f fbbc
00000030: ece2 74bd 0206 713c dc23 0dbd 50e1 68bd
00000040: 27aa 5e3d a56e 2abd 352a d9bb 878a 9d3c
00000050: 4122 023b 59c9 31bd 300e 55bd 1933 4e3d
00000060: a0f5 393c 91fe 553d 90c4 b0bc 8e07 963c
00000070: 21dd 70bc 1fd1 48bb f4da 1ebd 3915 ab3c
00000080: c63c a13c 2fbc bbba 02a8 6bbc b285 20bd
00000090: 224b 313d d9ec 41bd 15c3 d23c 85bb aebc
000000a0: bf61 fabc 1036 353c 0560 07bd bb65 683c
000000b0: adb5 4a3c 7251 40bd 65fd 283c 5540 d93c
000000c0: e934 c93c e944 05bc 50db 54bd 41d6 18bc
000000d0: a276 b43c 2cef c1bc 52c5 bf3c 7c4e 2c3d
000000e0: 51c0 04bd 7509 ce3a 70cd dc3c 983b ad3b
000000f0: 4220 813b 8537 0f3c fcdd 42bd 9889 e63b
00000100: 46fd 343d f566 603d 4b6a 1a3d a0ec 353c
00000110: accc 033d b24f fcbc db80 60bd d1b3 61bd
00000120: a480 843d 7641 2d3d 6042 31bd 9065 c43c
00000130: d0db 403d 6bb6 813d 3492 643d e618 493d
00000140: 3485 7cbc 88cc bdbc 113f 543d 892e 133d
00000150: 37ea 1abd 6ec2 643d dbce ee3c cf38 0b3d
00000160: e8e5 20bd c980 993c 138f bdbc abce 433d
00000170: 06b1 45bc 2720 cc3c 0281 463c 0b9a d63c
00000180: 6469 bbbc 74b6 f53c 6186 34bd e5b0 793c
00000190: f274 2ebd 5314 80bd 0afc 51bd f63d 4b3d
000001a0: 3163 0b3d 763a 733d c792 4d3d d36d 69bd
000001b0: 216d 31bd 9332 25bc 7c0a 28bd c77c 323d
000001c0: 9865 44bd a22e fbbc dd71 79bd e43c 13bd
000001d0: fcdd 553d 8fe7 543d 3048 3a3d f970 473d
000001e0: 1c26 663d 71a0 83bc 80e5 e43c e960 673d
000001f0: 9943 ab3c 50cb 813d dede 053d 9551 203d
00000200: 7df7 b4bc 70b3 f83c 97d5 f53b 62fb 7bbc
00000210: 21e8 13bd 3423 11bd 391c 45bd 0f44 303d
00000220: 23b0 363d 51f8 f8bb 7aa1 13bd 152f 4e3d
00000230: 3f15 283d a3d4 8a3b 1f31 f6bc 5ace 713d
00000240: 391c e03c 9bf5 41bd f9bb 773d f72c 443d
00000250: bb8c b9bc 5a54 153d b092 13bd 7c57 28bc
00000260: d309 5a3d 12d2 1c3b b472 37bd 6e88 acbc
00000270: e104 8dbc 4ccc 4abc 2531 c73b 4577 703d
00000280: c264 693b 2d60 20bd 228c 483b 00c4 f73c
00000290: e333 013d bb05 6bbd 9198 38bc 1ab1 41bd
000002a0: 18b8 dfbc ecd7 ba3c 9e4c 36bd 05ab c33c
000002b0: c796 5b3d 0d28 773b 5a48 2dbd 8308 bcbc
000002c0: 2b1e 573c 81c8 46bd 6876 013d 72b0 6abd
000002d0: 3e91 7abd dbfa 7dbd 0c8b 55bc 60a7 2e3d
000002e0: 1662 75bd 1c09 573d 5728 d1bc b665 953c
000002f0: 7e9d 2d3b a3c9 69bd d83d 573d b4cd 0a3d
00000300: 2f52 7f3d eb71 023d 72ed 28bd ee5a 593d
00000310: 3ef6 643b 37e6 f33c 6957 4fbd d2a4 8dbc
00000320: 8a0e 80bd 331d cdbc 487b 603c 3f6b 49bd
00000330: 0cfe a63c 65a7 083d d11c 053c 2645 2dbd
00000340: c0b2 46bd e55a 9cbc e1b9 dd3c dfa5 7b3d
00000350: c42c 143d 1c55 d8bb 8cee bb3c da47 80bd
00000360: e7e3 60bd 3970 ed3c d00b 11bd 49f7 ff3c
00000370: 4348 38bd 57d8 02bd b40e 58bd d767 083d
00000380: 7fc2 bcbb 0930 483d 7864 213d 8c23 103d
00000390: dcab 093b 2164 a0bc a386 5fbc 1cdd 0b3c
000003a0: 70d9 003d 293e 35bd d139 593d c9d5 e0bb
000003b0: 016c 58bd f553 0bbd dd39 663d 09ed 6c3d
000003c0: a30c 71bd cd4e 373d 1df6 033d c694 1b3d
000003d0: 1cb3 5c3d aeca 0cbd f887 a43c b54f d93c
000003e0: dbfa 94bc be55 b13c c9dd 93bc 6d43 213d
000003f0: 6fba 8bbc 2676 bebc 0213 823c ba93 bb3c

conv2.bias f4 [20]
0.022594256 -0.044907663 0.049374424 0.044664867 -0.019578349 0.009448398 0.008316564 -0.009381403
-0.042685654 0.05260538 0.031463355 -0.052976765 -0.048176736 0.060289487 0.009363197 -0.014139185
0.043475993 0.017097231 0.022249896 0.050186172
00000000: 9717 b93c 19f1 37bd d63c 4a3d 82f2 363d
00000010: c662 a0bc 74cd 1a3c 3342 083c 75b4 19bc
00000020: 27d7 2ebd bd78 573d b8df 003d 2afe 58bd
00000030: f854 45bd 1cf2 763d 1868 193c 0aa8 67bc
00000040: e213 323d 7e0f 8c3c 6a45 b63c 0490 4d3d

fc1.weight f4 [50, 320]
-0.0047575147 0.053721007 -0.038841583 -0.033645075 0.008878043 -0.007119314 0.031664114 -0.015102771
0.008518585 -0.012146687 0.041698623 -0.003814517 0.0014922203 0.04110836 0.05424638 0.053063303
-0.05441113 -0.031355675 -0.012034072 -0.011469758 0.03228807 0.025494631 -0.0044900645 0.0008869793
0.011749294 0.04835753 0.029064188 -0.028426932 -0.02881137 0.017915983 -0.005786938 -0.03579817
-0.05385257 0.007819568 -0.01616555 -0.032211974 0.010787318 0.054160357 0.045968324 0.031640552
-0.04197167 0.03180511 0.028359968 0.018148562 -0.013734887 -0.00076989963 -0.030464508 -0.012828876
-0.009337582 -0.007419086 -0.05554417 0.019685563 -0.04601365 -0.041125715 0.02326926 -0.045678455
0.05282357 0.053761445 -0.017477684 -0.009528222 -0.04301009 0.0028923207 0.010244602 -0.030616025
0.017155811 -0.0021547673 -0.015982077 0.0005367055 -0.054181606 -0.039505143 0.0074702585 0.054476023
-0.032953333 0.03557518 0.0042583854 -0.024932556 0.0002948067 0.026819611 0.006372197 0.049101904
-0.010608264 -0.037296522 0.050234444 -0.01607128 0.035807677 0.037245806 0.009962777 -0.045907754
-0.054553222 0.026938591 0.013869331 0.032567106 -0.049119692 -0.007704225 0.04832436 0.029396413
0.0464969 0.044198506 -0.01309719 -0.037441302 -0.033397272 0.019126441 -0.022165334 0.0001080183
0.008720274 0.03421792 0.030999385 0.03167033 0.0023536272 0.031167686 -0.026568884 -0.022551278
-0.00897747 -0.0320791 0.050145287 -0.008453793 0.016256403 -0.0013407575 -0.0005644334 -0.029748173
-0.003992943 -0.04986998 -0.02659631 0.042853866 -0.052239414 0.008983275 0.008753419 -0.053857867
0.010985348 0.026089223 0.040567037 0.010490611 0.0436837 0.0021209419 0.021245334 0.01673405
-0.041300915 -0.012434321 -0.03936246 0.04364311 0.026842078 -0.02369616 -0.010404251 0.014814199
-0.049125854 0.0016766672 0.026752148 0.0072702584 -0.005610929 0.035961416 0.024055574 -0.04962175
0.03273234 -0.044076353 0.031279024 0.047079563 0.0050210613 -0.018609544 -0.0285514 -0.024656909
-0.010542968 -0.022856174 0.055451743 -0.023697808 0.02305349 -0.051531762 0.028103815 0.047538493
-0.040286012 -0.013877089 0.013355013 -0.053517297 -0.03542055 0.019248886 0.05280463 -0.016723512
-0.00060806953 -0.054429416 -0.05323817 0.049410943 0.047501396 -0.01762856 -0.022100912 -0.0031409992
0.026175767 -0.05498842 -0.03220713 -0.019192241 -0.024001662 -0.0016421257 0.040183265 0.011539464
-0.0504319 0.05174852 0.044819105 0.01721975 0.027811239 0.02139361 0.046273336 -0.053541217
-0.03477302 -0.006789755 -0.010400071 -0.036857463 -0.053808738 -0.04253924 -0.00855161 0.047571957
0.037085623 0.016155962 -0.03432496 -0.022551322 0.0053635733 -0.051689345 -0.002550212 0.011182652
0.05063071 -0.014324572 0.055183895 0.0043637324 -0.03872795 0.053002764 0.04854672 -0.044163294
-0.032266967 0.0267978 -0.034506317 0.037675302 -0.026610585 -0.017256286 -0.016156018 0.05308932
-0.018821469 -0.010881949 0.03373275 -0.03850018 -0.00021957961 -0.043117013 -0.05154954 -0.012775408
0.006045213 0.047687754 -0.053381827 -0.01597863 0.01425933 0.020907419 0.032649633 -0.04502481
-0.013718348 0.012625603 -0.044746466 0.028270695 -0.053191107 0.034736097 0.018162014 -0.015876109
00000000: ede4 9bbb 8f0a 5c3d 5a18 1fbd 6bcf 09bd
00000010: 3675 113c 2249 e9bb 3bb2 013d 9d71 77bc
00000020: 8991 0b3c e602 47bc 2dcc 2a3d fafc 79bb
00000030: 9b96 c33a 3d61 283d 7431 5e3d e858 593d
00000040: 34de 5ebd cf6e 00bd 8e2a 45bc a7eb 3bbc
00000050: 7f40 043d 1eda d03c 6421 93bb 2c84 683a
00000060: 1c80 403c 8c12 463d 0518 ee3c 99df e8bc
00000070: d205 ecbc 8ac4 923c 5ba0 bdbb 1aa1 12bd
00000080: 8394 5cbd a51d 003c 9e6d 84bc b4f0 03bd
00000090: 4bbd 303c 40d7 5d3d 4849 3c3d 8699 013d
000000a0: 7cea 2bbd 1346 023d 2a53 e83c 4bac 943c
000000b0: 4b08 61bc 17d3 49ba b490 f9bc 3530 52bc
000000c0: a8fc 18bc ce1b f3bb 4982 63bd 9e43 a13c
000000d0: cf78 3cbd 7073 28bd 2d9f be3c 5519 3bbd
000000e0: 875d 583d f634 5c3d 5c2d 8fbc 421c 1cbc
000000f0: 592b 30bd 178d 3d3b fad8 273c 75ce fabc
00000100: 588a 8c3c ff36 0dbb d8ec 82bc b2b1 0c3a
00000110: 88ed 5dbd 25d0 21bd 12c9 f43b 4022 5f3d
00000120: 13fa 06bd 48b7 113d ed89 8b3b 5c3f ccbc
00000130: 4990 9a39 cdb4 db3c ddcd d03b 141f 493d
00000140: 49ce 2dbc 3dc4 18bd a2c2 4d3d eba7 83bc
00000150: 12ab 123d 0f8f 183d ea3a 233c c509 3cbd
00000160: 3373 5fbd 52ae dc3c 313c 633c 1665 053d
00000170: bb31 49bd b973 fcbb c4ef 453d bfd0 f03c
00000180: 8973 3e3d 7e09 353d 9995 56bc 0d5c 19bd
00000190: 94cb 08bd 0eaf 9c3c 1394 b5bc e287 e238
000001a0: 7bdf 0e3c 1728 0c3d 6cf2 fd3c bfb8 013d
000001b0: 503f 1a3b 6053 ff3c fda6 d9bc 75bd b8bc
000001c0: 3d16 13bc 6065 03bd 2565 4d3d c781 0abc
000001d0: 262c 853c 5bbc afba 7cf6 13ba 71b2 f3bc
000001e0: 3cd7 82bb 7744 4cbd 81e0 d9bc 8987 2f3d
000001f0: fff8 55bd 962e 133c 806a 0f3c 119a 5cbd
00000200: e4fb 333c 11b9 d53c 9f29 263d d0e0 2b3c
00000210: aeed 323d 80ff 0a3b b20a ae3c d915 893c
00000220: 262b 29bd 53b9 4bbc 883a 21bd 1ec3 323d
00000230: ebe3 db3c 731e c2bc 9776 2abc 41b7 723c
00000240: 3138 49bd 9ec3 db3a 5227 db3c 593b ee3b
00000250: e2db b7bb 474c 133d 3210 c53c 2d40 4bbd
00000260: 5912 063d 6889 34bd 6f1e 003d 80d6 403d
00000270: b787 a43b 0b73 98bc a0e4 e9bc 49fd c9bc
00000280: 6abc 2cbc df3c bbbc 5e21 633d e821 c2bc
00000290: acda bc3c f812 53bd f939 e63c b9b7 423d
000002a0: f202 25bd bb5c 63bc fcce 5a3c f434 5bbd
000002b0: 2315 11bd d7af 9d3c ab49 583d bfff 88bc
000002c0: db66 1fba 61f1 5ebd 4410 5abd 2163 4a3d
000002d0: d390 423d c569 90bc f90c b5bc 39d9 4dbb
000002e0: 906e d63c 8a3b 61bd a0eb 03bd 0c39 9dbc
000002f0: 229f c4bc 983c d7ba 3597 243d 0510 3d3c
00000300: ae91 4ebd 42f6 533d 3d94 373d 6f10 8d3c
00000310: 65d4 e33c a741 af3c 1c89 3d3d 094e 5bbd
00000320: 276e 0ebd 987c debb 0f65 2abc daf7 16bd
00000330: 8d66 5cbd a03d 2ebd 0d1c 0cbc d0da 423d
00000340: 18e7 173d 8259 843c 5498 0cbd 8dbd b8bc
00000350: eac0 af3b 35b8 53bd 7521 27bb 7137 373c
00000360: 2662 4f3d 9cb1 6abc 8208 623d a4fd 8e3b
00000370: 33a1 1ebd 6d19 593d edd8 463d 92e4 34bd
00000380: 5e2a 04bd 0f87 db3c 7f56 0dbd 6b51 1a3d
00000390: 71fe d9bc 0e5d 8dbc a059 84bc 3074 593d
000003a0: 7b2f 9abc 344a 32bc 5a2b 0a3d 5db2 1dbd
000003b0: f43e 66b9 779b 30bd 9c25 53bd f24f 51bc
000003c0: ec16 c63b 3c54 433d e7a6 5abd 9ee5 82bc
000003d0: f79f 693c 0946 ab3c 9fbb 053d ef6b 38bd
000003e0: ecc2 60bc 9edb 4e3c 1248 37bd f297 e73c
000003f0: ebde 59bd 7047 0e3d 81c8 943c 9d0e 82bc

fc1.bias f4 [50]
0.02011158 -0.011156207 0.015283053 -0.023144377 0.034029517 0.02897497 -0.013523316 -0.011873057
-0.054699242 0.033615813 0.04338341 0.0056468537 -0.048955295 0.039533723 -0.04698348 0.04415321
0.051799174 -0.052702498 0.053189054 -0.05331053 -0.019199163 -0.015099068 0.020461474 0.04007849
-0.0017966841 0.04927669 0.038221575 0.030994846 0.008564287 -0.01696042 -0.015198649 -0.03208729
0.047125943 -0.013994064 -0.010950398 -0.000885074 0.030666688 0.021923218 0.03347611 -0.03827903
-0.050108913 0.023654576 0.0020314034 0.03144433 0.043869473 -0.009125981 -0.052854754 -0.037824906
-0.04807201 -0.024156328
00000000: 0ac1 a43c 86c8 36bc c565 7a3c 4799 bdbc
00000010: 8962 0b3d eb5c ed3c e690 5dbc 3687 42bc
00000020: 500c 60bd bcb0 093d cdb2 313d 3e09 b93b
00000030: 5985 48bd 1dee 213d c071 40bd ffd9 343d
00000040: 5f2b 543d 93de 57bd c4dc 593d 245c 5abd
00000050: 9047 9dbc 1562 77bc d29e a73c 5829 243d
00000060: b77e ebba 5bd6 493d 3a8e 1c3d e7e8 fd3c
00000070: 3951 0c3c 94f0 8abc c103 79bc f66d 03bd
00000080: 2207 413d 5c47 65bc 4c69 33bc 5004 68ba
00000090: b538 fb3c 5298 b33c 3f1e 093d 79ca 1cbd
000000a0: 013f 4dbd 3ec7 c13c 4b21 053b c5cb 003d
000000b0: 7ab0 333d 2385 15bc 3a7e 58bd 4aee 1abd
000000c0: 28e7 44bd 7ee3 c5bc

fc2.weight f4 [10, 50]
0.12056667 -0.10376209 -0.06423329 -0.08277727 -0.12108601 -0.098889925 0.032958075 0.10087279
-0.04285497 0.062115908 -0.13535894 -0.021655984 -0.11240995 -0.08054557 0.0794479 -0.010556615
-0.013174759 -0.01209812 -0.09551318 0.12683287 -0.13645361 -0.085953996 0.019313866 0.09792435
0.0028752259 0.034229577 -0.05680638 -0.13430673 0.048346378 0.0139684435 -0.055086248 0.07560681
0.06745354 0.017404985 0.06736223 -0.04879526 0.040848624 0.10967801 0.05221156 0.009420911
0.032053027 -0.01642648 -0.12483464 -0.0760336 0.121264085 -0.013920407 0.13959621 -0.05755034
0.123701595 0.06493857 0.10315866 0.13248752 -0.038258277 -0.013463457 0.07496806 0.030373827
-0.073750675 -0.08254712 -0.060493156 -0.10298434 -0.12009748 -0.015722279 -0.025782496 0.07386974
-0.09636149 -0.07213923 -0.02093751 0.08523166 -0.074482605 -0.08709247 0.09005295 -0.040811095
-0.14050357 -0.03164346 0.02238594 0.053187676 -0.10802818 -0.07266068 -0.0045379316 -0.0010872439
-0.05770336 0.015849268 0.041810255 -0.122868285 -0.14141579 0.023324305 0.015669128 0.117328025
-0.095836505 0.0068085864 -0.004347475 0.025665743 -0.08151068 0.016027598 0.051556043 -0.13828507
0.011790227 -0.13968387 -0.10186262 -0.026939541 0.11463887 0.11822227 0.09500199 0.03858029
-0.07550895 -0.085980974 -0.10735684 0.08098943 -0.026188314 -0.049348 0.077626966 -0.0862565
-0.061047792 0.032908265 0.07318494 -0.13921754 0.049677413 -0.041492373 -0.006246414 0.032560356
-0.11530184 0.0139959855 -0.11935518 0.024139233 -0.109548405 -0.13344029 0.056436084 -0.124102354
0.09987522 0.004726355 0.13047713 -0.013845619 0.055187073 0.012569667 0.1318219 -0.07664339
0.011537067 -0.10039062 0.06701732 0.13593759 -0.0855788 -0.12348028 0.042868163 -0.011352555
0.025612874 -0.02005833 0.06303269 -0.026252383 -0.00031593378 -0.05230729 0.053155776 0.039091185
0.11303935 0.08446735 0.025188342 -0.012240244 -0.012302211 -0.07213122 0.11096609 -0.0951833
0.13513583 -0.061787963 -0.07778555 0.0025304526 -0.036202136 -0.101055555 -0.03232091 0.07335489
0.0029047006 0.13811499 0.03890615 -0.08939491 -0.10390813 -0.0675443 -0.089027666 0.037840746
-0.03876499 -0.10171888 0.09191721 -0.12539409 -0.05819467 0.07207899 0.05473718 0.08161096
0.024011046 -0.12551348 0.036961783 -0.12555596 -0.14085472 0.13661383 0.011075532 -0.09036742
0.139419 -0.060603414 -0.112963505 0.06524898 0.11863288 -0.066882804 0.096798494 -0.06440354
-0.03008226 0.08390714 0.056613997 0.10879286 -0.04647285 0.07952252 0.086868055 -0.05794158
-0.13115479 0.011393495 0.050304733 -0.11795141 -0.11989719 0.11264114 0.0050934465 -0.09552426
0.14085382 0.12208869 -0.055556815 0.007441136 -0.07745597 0.043917455 0.07800543 0.10071038
0.12902719 0.02051176 -0.103686936 -0.13568841 0.0280023 0.06460887 -0.084279776 0.009597923
-0.12286017 0.048654858 0.0467944 -0.13960756 -0.037560105 -0.11933167 -0.09816862 -0.08498472
0.09386898 -0.06480999 -0.008677913 0.13297978 -0.12612437 0.07106814 -0.014134555 0.0036969814
0.09918344 -0.1323508 0.05556369 0.07086092 -0.024889939 0.018414231 0.10014675 -0.09509936
00000000: a9eb f63d 3881 d4bd be8c 83bd 2187 a9bd
00000010: f1fb f7bd cd86 cabd 0cff 063d 6596 ce3d
00000020: b188 2fbd 406d 7e3d 899b 0abe e467 b1bc
00000030: 3037 e6bd 13f5 a4bd 95b5 a23d a7f5 2cbc
00000040: f2da 57bc 3137 46bc 6a9c c3bd 7ae0 013e
00000050: 7fba 0bbe a608 b0bd 1d38 9e3c 908c c83d
00000060: 496e 3c3b 5034 0c3d cfad 68bd b487 09be
00000070: da06 463d e6db 643c 1ea2 61bd bed7 9a3d
00000080: 1525 8a3d e694 8e3c 35f5 893d 8add 47bd
00000090: e350 273d dd9e e03d cadb 553d 2a5a 1a3c
000000a0: 094a 033d d390 86bc 4ea9 ffbd 81b7 9bbd
000000b0: 4e59 f83d 6b12 64bc 4ff2 0e3e e8b9 6bbd
000000c0: 4357 fd3d 83fe 843d d944 d33d cfaa 073e
000000d0: b6b4 1cbd d595 5cbc db88 993d 88d2 f83c
000000e0: 980a 97bd 770e a9bd acc7 77bd 74e9 d2bd
000000f0: abf5 f5bd 02cc 80bc d035 d3bc 0549 973d
00000100: 2c59 c5bd bcbd 93bd 2485 abbc f08d ae3d
00000110: 568a 98bd 895d b2bd ae6d b83d 8929 27bd
00000120: 2be0 0fbe 939c 01bd b862 b73c 52db 593d
00000130: e13d ddbd 1fcf 94bd eeb2 94bb da81 8eba
00000140: 5c5a 6cbd 53d6 813c 3b41 2b3d 5ea2 fbbd
00000150: 4dcf 10be 9d12 bf3c 8b5c 803c ad49 f03d
00000160: ee45 c4bd 901a df3b 4375 8ebb f740 d23c
00000170: 12ef a6bd 4f4c 833c 6e2c 533d 9a9a 0dbe
00000180: cc2b 413c 4a09 0fbe 599d d0bd 50b0 dcbc
00000190: c9c7 ea3d 841e f23d 6790 c23d 5e06 1e3d
000001a0: 70a4 9abd cb16 b0bd e7dd dbbd c9dd a53d
000001b0: e088 d6bc 2121 4abd e3fa 9e3d 3fa7 b0bd
000001c0: 400d 7abd d1ca 063d fce1 953d 0b8f 0ebe
000001d0: 8b7a 4b3d e8f3 29bd b8ae ccbb 025e 053d
000001e0: 5f23 ecbd 6b4f 653c 7d70 f4bd a4bf c53c
000001f0: ea5a e0bd 92a4 08be 8629 673d 6029 febd
00000200: 618b cc3d 8adf 9a3b cc9b 053e bcd8 62bc
00000210: d70b 623d 01f1 4d3c 52fc 063e 36f7 9cbd
00000220: f705 3d3c 9999 cdbd 6040 893d 3933 0b3e
00000230: f043 afbd 3be3 fcbd 8796 2f3d 1100 3abc
00000240: 17d2 d13c 5e51 a4bc 4817 813d 3d0f d7bc
00000250: eaa3 a5b9 2b40 56bd dfb9 593d 141e 203d
00000260: 2d81 e73d 38fd ac3d c857 ce3c 4e8b 48bc
00000270: 368f 49bc 88b9 93bd 3042 e33d 76ef c2bd
00000280: 0c61 0a3e 6015 7dbd 084e 9fbd f3d5 253b
00000290: b148 14bd 37f6 cebd ee62 04bd 173b 963d
000002a0: ca5c 3e3b 046e 0d3e 0e5c 1f3d ae14 b7bd
000002b0: c9cd d4bd aa54 8abd 2354 b6bd e6fe 1a3d
000002c0: 0ac8 1ebd fd51 d0bd 173f bc3d 4f67 00be
000002d0: 895d 6ebd 269e 933d 1834 603d a623 a73d
000002e0: d0b2 c43c 9b86 00be 3d65 173d be91 00be
000002f0: 383c 10be 7fe4 0b3e 2676 353c 8e12 b9bd
00000300: dbc3 0e3e 493b 78bd 6959 e7bd 42a1 853d
00000310: ccf5 f23d daf9 88bd 4a3e c63d 01e6 83bd
00000320: 126f f6bc 82d7 ab3d 14e4 673d cace de3d
00000330: 515a 3ebd b4dc a23d e1e7 b13d 2654 6dbd
00000340: 714d 06be c8ab 3a3c 560c 4e3d 8290 f1bd
00000350: a88c f5bd 66b0 e63d ede6 a63b 39a2 c3bd
00000360: fc3b 103e a309 fa3d 8b8f 63bd c6d4 f33b
00000370: 3ca1 9ebd cae2 333d 50c1 9f3d 3e41 ce3d
00000380: b41f 043e 4708 a83c d159 d4bd e7f1 0abe
00000390: 1465 e53c a851 843d e09a acbd 9b40 1d3c
000003a0: 1d9e fbbd 514a 473d 7cab 3f3d 49f5 0ebe
000003b0: a0d8 19bd 2a64 f4bd a10c c9bd 780c aebd
000003c0: 613e c03d 1abb 84bd ce2d 0ebc da2b 083e
000003d0: bf26 01be 2c8c 913d 9f94 67bc 0e49 723b
000003e0: b020 cb3d f886 07be c096 633d 881f 913d
000003f0: fce5 cbbc 71d9 963c bd19 cd3d 74c3 c2bd

fc2.bias f4 [10]
-0.024408258 0.105616175 0.09433188 0.13792463 0.025830396 0.0031944315 0.1359808 -0.08660277
-0.13973795 0.100592636
00000000: d4f3 c7bc 4b4d d83d 1331 c13d 1d3c 0d3e
00000010: 449a d33c ab59 513b 8d3e 0b3e cb5c b1bd
00000020: 7717 0fbe 8303 ce3d
